…
#model.add(Dense(64, activation='relu'))
model.add(keras.layers.Dropout(0.5, noise_shape=None, seed=None))

model.add(Dense(2, activation='softmax'))




model.compile(loss=keras.losses.categorical_crossentropy,
              optimizer=keras.optimizers.Nadam(lr = 0.001),
              metrics=['accuracy'])



model.summary()


modelHist2 = model.fit(x_train, y_train, validation_data = (x_val, y_val),
          batch_size=32, epochs=30, callbacks = callbacks_list)




Layer (type)                 Output Shape              Param #
=================================================================
conv2d_37 (Conv2D)           (None, 198, 63, 16)       272
_________________________________________________________________
max_pooling2d_37 (MaxPooling (None, 50, 16, 16)        0
_________________________________________________________________
conv2d_38 (Conv2D)           (None, 50, 16, 32)        8224
_________________________________________________________________
max_pooling2d_38 (MaxPooling (None, 25, 8, 32)         0
_________________________________________________________________
batch_normalization_5 (Batch (None, 25, 8, 32)         128
_________________________________________________________________
conv2d_39 (Conv2D)           (None, 25, 8, 32)         16416
_________________________________________________________________
max_pooling2d_39 (MaxPooling (None, 13, 4, 32)         0
_________________________________________________________________
dropout_23 (Dropout)         (None, 13, 4, 32)         0
_________________________________________________________________
flatten_12 (Flatten)         (None, 1664)              0
_________________________________________________________________
dropout_24 (Dropout)         (None, 1664)              0
_________________________________________________________________
dense_18 (Dense)             (None, 2)                 3330
=================================================================
Total params: 28,370
Trainable params: 28,306
Non-trainable params: 64
_________________________________________________________________
Train on 22960 samples, validate on 2552 samples
Epoch 1/30
22960/22960 [==============================] - 24s 1ms/step - loss: 0.5280 - acc: 0.7683 - val_loss: 0.4736 - val_acc: 0.7708
Epoch 2/30
…
