…
    model.add(Flatten())
    #model.add(Dense(10, activation='relu'))
    #model.add(Dense(64, activation=''relu'))

    model.add(keras.layers.Dropout(0.2, noise_shape=None, seed=None))
    model.add(Dense(2, activation='softmax'))
    
    # compile and return 
    model.compile(loss=keras.losses.categorical_crossentropy,
                  optimizer=keras.optimizers.RMSprop(lr = 0.001),
                  metrics=['accuracy'])
    return model

Layer (type)                 Output Shape              Param #   
=================================================================
conv2d_9 (Conv2D)            (None, 199, 64, 32)       320       
_________________________________________________________________
max_pooling2d_9 (MaxPooling2 (None, 50, 16, 32)        0         
_________________________________________________________________
conv2d_10 (Conv2D)           (None, 48, 14, 32)        9248      
_________________________________________________________________
max_pooling2d_10 (MaxPooling (None, 24, 7, 32)         0         
_________________________________________________________________
conv2d_11 (Conv2D)           (None, 24, 7, 32)         9248      
_________________________________________________________________
max_pooling2d_11 (MaxPooling (None, 12, 4, 32)         0         
_________________________________________________________________
conv2d_12 (Conv2D)           (None, 12, 4, 32)         9248      
_________________________________________________________________
max_pooling2d_12 (MaxPooling (None, 6, 2, 32)          0         
_________________________________________________________________
flatten_3 (Flatten)          (None, 384)               0         
_________________________________________________________________
dropout_3 (Dropout)          (None, 384)               0         
_________________________________________________________________
dense_3 (Dense)              (None, 2)                 770       
=================================================================
Total params: 28,834
Trainable params: 28,834
Non-trainable params: 0
_________________________________________________________________
training on pickle x_train_splitted0.pickle
Train on 6795 samples, validate on 756 samples
Epoch 1/10
6795/6795 [==============================] - 4s 618us/step - loss: 0.6522 - acc: 0.6250 - val_loss: 0.5469 - val_acc: 0.7222
…
